model_weights.pth (torch, 577338 bytes, 90 tensors)

dsm_net.conv1.conv.0.weight f4 [32, 1, 3, 3]
000000 0c 0d de 3f e8 8e bc 3f 76 90 a3 40 d1 d8 0f be
       1.7347732 1.4731112 5.1113844 -0.14047553
000010 04 bd 6e bf c9 ee 64 c0 90 15 57 bf 9f cb 91 bf
       -0.93257165 -3.5770743 -0.84017277 -1.1390265
000020 94 fa 0e c0 a4 25 0d 3e 05 23 10 3f 84 d0 35 40
       -2.234044 0.1378389 0.56303436 2.8408518
000030 d0 bf 9f be 98 87 67 bf e4 6b 95 3f bc 41 86 40
       -0.3120103 -0.90441275 1.1673551 4.195524
000040 80 30 30 3e ac 4a 64 40 b7 2f 7e 40 d5 e3 a6 3e
       0.17206001 3.5670576 3.9716623 0.32595697
000050 0b c4 44 bf a0 f1 95 3e 70 b9 aa c0 33 77 1e bf
       -0.7686164 0.29285908 -5.3351364 -0.61900634
000060 62 46 96 be 9d d6 60 3d c3 d5 2d 40 e7 1e c2 3f
       -0.29350573 0.05489217 2.716172 1.5165681
000070 7f e4 18 3d 7b 9f 4d 40 56 ed 2b bf 64 dc 26 be
       0.037327286 3.212859 -0.6715902 -0.1629501
000080 a4 55 a1 3f e8 b7 f7 be 13 80 fb bd b7 24 a2 be
       1.260426 -0.48382497 -0.122802876 -0.31668636
000090 6c 07 4c be d0 05 ac bd c7 61 1b bc 33 cb ef be
       -0.19924706 -0.08399546 -0.009483761 -0.46834716
0000a0 4f 7b 24 bf f2 38 57 bd c7 fb 3c be e9 67 9c be
       -0.64250654 -0.05254454 -0.1845542 -0.30548027
0000b0 c0 1e 17 be a8 7d 3d bf 2d 62 0c 40 3e b7 84 c0
       -0.14757824 -0.7401986 2.1934922 -4.1473684
0000c0 fa 37 61 3f a2 b5 22 3f 46 05 80 c0 d0 4a a3 bf
       0.8797604 0.635584 -4.0006437 -1.2757206
0000d0 a0 4a d4 be 0d d2 bd bf 0b 9b 9b be 70 a8 f9 3b
       -0.41463184 -1.4829727 -0.30391726 0.0076189563
0000e0 2c ac c5 3e 53 48 18 bf 36 7b 56 be 23 32 c9 be
       0.3860792 -0.5948536 -0.20945439 -0.39296064
0000f0 7d 87 89 be 28 fe de bd 1f 74 06 bf ec ab 5c 40
       -0.26861182 -0.1088832 -0.52520937 3.4479933
000100 98 21 54 40 6b c7 f5 3f 6d 1a 1e 40 b1 8c 6b bf
       3.3145504 1.9201483 2.470363 -0.92011553
000110 69 d9 10 40 0d 1c 64 c0 1d f5 cb bf 5c 7f c2 be
       2.2632697 -3.564212 -1.5934178 -0.37987792
000120 60 9d e5 bf b3 4c 82 3f f3 b1 f4 bf 48 fa 8c bf
       -1.7938652 1.0179657 -1.9116806 -1.101388
000130 99 73 fa 40 a7 df ae be f3 d7 b5 bf e1 c7 c1 bf
       7.826611 -0.34155008 -1.4206527 -1.5139123
000140 57 9a a2 bf a0 98 3e bf 96 c3 01 3f bf 0d 9b 3f
       -1.2703351 -0.7445164 0.50689065 1.211357
000150 7b 5c 34 bf 52 a8 14 3f 19 5a 5c 3f 38 5e 88 bf
       -0.70453614 0.58069336 0.8607498 -1.0653753
000160 b1 35 5b 3f 0b c8 cd c0 e9 51 4b c0 9b ad 77 bf
       0.856288 -6.4306693 -3.1768744 -0.96749276
000170 b7 2b 8e be 9d de 60 c0 e6 0b 76 3e 8c 76 dc 3e
       -0.27767727 -3.5135872 0.24027976 0.43059194
000180 c1 78 75 40 40 36 65 40 b3 69 a7 3e 7d 4a eb bf
       3.8354952 3.5814362 0.3269783 -1.8382107
000190 0e ae 93 3f da 59 f5 3f 9d b5 dd bf 3e 6a b1 bf
       1.1537492 1.9168046 -1.7321049 -1.3860548
0001a0 43 9e 29 bf 78 a7 a3 bf cd 3c 77 bf 69 a7 d0 3f
       -0.66257113 -1.2785482 -0.9657715 1.630109
0001b0 40 46 c2 3e fc ee af 3f 2e 76 84 3f b6 6e 81 bf
       0.37944221 1.3744807 1.0348566 -1.0111911
0001c0 e1 8f 7a bf 6d 31 42 40 fc e6 47 3e 7a 93 23 c0
       -0.9787579 3.0342667 0.19521707 -2.5558763
0001d0 4a 26 6c bf 62 20 6a bf 22 45 4e be f5 18 46 3f
       -0.92245924 -0.9145566 -0.2014356 0.7738183
0001e0 dc 12 f6 be 97 24 a5 c0 35 66 8a 3e c4 11 b9 40
       -0.48061264 -5.1607165 0.27031103 5.7834187
0001f0 87 99 fe 3e 98 71 95 bf e4 dd 18 40 73 d6 d5 3f
       0.49726507 -1.1675291 2.3885431 1.670607
000200 32 7f 56 40 dd 34 fd 3e 34 70 2f c0 be e7 4c c0
       3.3515134 0.49454394 -2.7412233 -3.2016444
000210 ad bf 2c 40 8e 76 5a 3d ad f7 07 40 ab 98 b5 bf
       2.699199 0.05333572 2.124492 -1.4187216
000220 0c 61 31 bf 3e b3 28 c0 fc b0 89 bd 95 dd 9f 3f
       -0.69288707 -2.63594 -0.0672321 1.2489496
000230 4f ae 59 3e 87 60 5e c0 1a 13 67 3f c3 55 1e c0
       0.212579 -3.4746416 0.9026352 -2.4739845
000240 d3 0e 91 3e 64 44 88 c0 99 dc 48 40 63 82 bb bd
       0.28331622 -4.2583485 3.1384642 -0.09155729
000250 46 03 f5 bc 23 89 33 3f 79 13 f2 bd ea 4f e6 bc
       -0.029908787 0.7013113 -0.1182012 -0.028114278
000260 d9 09 51 3e fc 34 23 be d4 88 61 bc be e5 6b 3c
       0.20413913 -0.1593818 -0.0137655325 0.0143980365
000270 76 30 2c be 2c ec 05 3e db 57 1c 3e 08 38 03 c0
       -0.16815361 0.13078374 0.15267889 -2.0502949
000280 86 65 8c 40 b4 86 29 c0 e3 09 3a 40 a8 03 70 c0
       4.387393 -2.6488466 2.9068534 -3.7502232
000290 d9 b5 19 c0 3d 64 16 40 43 66 25 be d6 7b b3 bd
       -2.401724 2.349868 -0.16152291 -0.08763854
0002a0 1c 44 84 3d 94 80 12 3f 0d 1b 83 3e ad 6c d5 3f
       0.06458303 0.57227445 0.25606576 1.667379
0002b0 87 31 25 40 0c 5e 09 bf 9a 3d c6 3f 4d 57 53 3e
       2.581148 -0.5365913 1.5487549 0.20638771
0002c0 60 13 16 c0 62 77 83 3f 6a 7a 44 bf 8d fc 24 c0
       -2.3449326 1.0270808 -0.7674929 -2.5779145
0002d0 7e 9f 63 3e 21 00 a7 c0 33 3e a5 bf f0 58 b3 bf
       0.2222881 -5.2187657 -1.2909607 -1.4011517
0002e0 d0 e9 85 40 80 50 07 40 2e bb 13 be 62 51 07 3f
       4.1847916 2.1142883 -0.14426872 0.52858555
0002f0 c4 e3 4b 3d 48 fa 01 3d 80 31 74 bf 9e 88 10 bf
       0.04977776 0.031732827 -0.9538803 -0.5645846
000300 77 c2 37 3f 9f e2 35 3e ff c1 2b 3f cb c6 89 c0
       0.71781105 0.1776223 0.6709289 -4.3055167
000310 ec 42 92 3e cf 14 48 3f 7a fc 2c 3f 6f 09 14 40
       0.28566682 0.7815675 0.6757275 2.3130758
000320 55 b8 49 3f f6 bb 51 3d 6d 9f 9e 3c a9 4c b2 3f
       0.78796893 0.051204644 0.01936313 1.3929645
000330 aa a6 14 c0 b9 87 a8 bf 22 d1 6e 40 3d 2f e0 be
       -2.3226724 -1.3166419 3.7315145 -0.4378604
000340 a4 48 70 be 0a e5 cb bd b1 e7 c8 be d6 5a 7e bd
       -0.2346521 -0.09955795 -0.39239267 -0.062098347
000350 80 bc d1 be ef 84 a4 be aa 8d 95 be c2 55 59 be
       -0.40964127 -0.3213267 -0.29209644 -0.2122412
000360 b8 b9 0a 3f 8e 80 b4 bf 16 54 b6 bf 8a 8a d9 3f
       0.54189634 -1.4101732 -1.4244411 1.6995404
000370 c3 34 85 c0 0b f7 f4 3f 84 50 7a 40 c6 9b 74 40
       -4.1626906 1.9137892 3.9111643 3.8220077
000380 1a 8c 19 40 a2 c8 4e 3f d6 2d c4 bd fb 87 5e bf
       2.3991761 0.8077489 -0.09579055 -0.8692624
000390 a7 30 b5 be f1 db 01 bf 0a 84 b5 3f e5 ee fc be
       -0.3538868 -0.5072623 1.418092 -0.49401012
0003a0 89 cf 2c 3f bc c4 3c bf 60 47 cc bc 27 85 37 be
       0.67504174 -0.7373769 -0.024936378 -0.17921887
0003b0 a1 fa 23 3e ba 8a 06 bf 88 ab 1e bf 3a f4 48 3e
       0.16013576 -0.5255543 -0.61980486 0.19624415
0003c0 bf e6 85 be 03 34 de bd 57 74 0a bf 60 1e f2 3e
       -0.26152608 -0.10849764 -0.5408377 0.472888
0003d0 f3 9f 36 3e a8 81 d2 be c8 0e c2 be 21 f1 3a be
       0.17834453 -0.41114545 -0.37901902 -0.18256046
0003e0 6b b9 a2 3f ea 54 44 c0 13 21 f4 be 2f ed 37 40
       1.2712835 -3.0676827 -0.47681484 2.8738515
0003f0 c2 b5 26 c0 23 e8 fa bf cf c0 c5 3e 78 de 5e bf
       -2.6048436 -1.9602093 0.38623664 -0.8705821

dsm_net.conv1.conv.1.weight f4 [32]
000000 aa 59 29 40 b7 fb 19 40 96 ba 34 40 3f 95 2d 40
       2.6460977 2.4059885 2.8238883 2.7122343
000010 9f 9d 55 3e 32 16 da 3f bf c4 20 3e 0f 1d 51 40
       0.20860909 1.7038023 0.15700053 3.2673986
000020 ba e4 6f 40 c9 0c 5d 40 ef 54 47 40 34 ea 00 40
       3.7483354 3.4539053 3.114559 2.0142946
000030 aa 37 2f 40 31 79 28 40 f0 3e 22 40 36 18 62 40
       2.7377725 2.632397 2.5350914 3.5327277
000040 0e 06 39 40 92 82 1f 40 23 62 33 40 74 30 47 40
       2.8909945 2.4923444 2.8028648 3.1123323
000050 d1 0a 3c 40 14 a3 68 40 b2 30 62 40 47 f9 1a 3e
       2.9381602 3.6349535 3.5342221 0.15134154
000060 de 6c 55 40 81 f8 cd 3c dd e5 3b 3e 12 7d 06 40
       3.3347697 0.02514291 0.18349405 2.1013837
000070 d0 f9 8e 40 5a 8b 32 40 31 ec 8e 3f 0f 19 09 40
       4.4679947 2.7897553 1.116583 2.1421545

dsm_net.conv1.conv.1.bias f4 [32]
000000 38 e3 bf 3e 71 35 a1 bf 7c c4 b7 bc 9c 9b b8 bf
       0.37478042 -1.2594434 -0.022432558 -1.4422488
000010 80 fa 70 bf 85 f4 fc 3f 40 09 34 bf 81 6a 8c c0
       -0.9413223 1.9762121 -0.70326614 -4.388001
000020 cb 85 6c c0 bd 1a 39 c0 b4 81 74 3e 26 80 23 3f
       -3.695666 -2.892257 0.23877603 0.63867414
000030 ec 33 53 bf 21 28 20 bf 58 e4 c9 bf ed 1d 23 c0
       -0.825011 -0.6256123 -1.577281 -2.5487015
000040 ea 11 a6 bf 37 e0 8f bc 61 f9 b3 3e 33 c5 83 bf
       -1.2974217 -0.017562969 0.35151199 -1.0294555
000050 ab e9 b8 bf d4 cc 6a c0 86 d2 78 c0 c0 4f 27 bf
       -1.444631 -3.6687517 -3.8878493 -0.65356064
000060 fc dc 4f c0 ea 06 bb 40 29 99 57 bf b6 57 16 3f
       -3.2478628 5.844594 -0.8421808 0.58727586
000070 e6 f7 9f c0 e0 42 a2 bf 5d 38 28 3f b4 d3 2f bf
       -4.999011 -1.2676659 0.65711004 -0.6868241

dsm_net.conv1.conv.1.running_mean f4 [32]
000000 0e 8c b8 bf b5 e4 e3 41 ce 78 9e bd 69 56 29 41
       -1.4417741 28.486673 -0.077378854 10.583596
000010 cb 18 a9 c0 6d 16 aa c1 ed e9 a1 c0 e7 1e 83 41
       -5.2842765 -21.26095 -5.0598054 16.390089
000020 64 61 b7 bf 74 50 4e c1 3d ad 65 3f c1 11 0c c1
       -1.4326596 -12.894642 0.89717466 -8.754334
000030 6d 9d 9a 3f 6c c7 cb bf b1 eb 88 41 ca f4 a3 c1
       1.2079293 -1.5920234 17.115084 -20.494526
000040 83 a9 ec be 5a 76 08 be b7 2b ea be 18 ca 08 40
       -0.46223077 -0.13326398 -0.45736477 2.1373348
000050 8b 24 fa bf 0d 6f f1 c0 05 a2 52 41 b4 05 c5 c0
       -1.9542402 -7.544806 13.164556 -6.156946
000060 3c 66 8c 41 42 8b b4 be a9 77 99 c0 dc cb 20 3f
       17.54992 -0.35262495 -4.795857 0.62811065
000070 8c 76 31 c1 07 9e 85 bf 7c 94 65 41 95 77 03 41
       -11.091442 -1.0438851 14.348751 8.216695

dsm_net.conv1.conv.1.running_var f4 [32]
000000 b1 42 1e 44 ce 31 a7 44 3e 72 af 43 49 af ab 43
       633.04205 1337.5564 350.89252 343.36942
000010 14 f0 5d 42 91 30 87 44 8c d1 47 42 bd 4c 93 44
       55.48445 1081.5177 49.954636 1178.3981
000020 dc 59 c1 43 62 21 08 44 0a 3a 2d 44 b9 6b e8 43
       386.70203 544.5216 692.90686 464.84158
000030 fe 51 80 43 1d 30 00 44 45 3f 14 44 02 14 1c 44
       256.64056 512.7518 592.9886 624.3126
000040 d9 26 43 43 ba 60 f2 42 17 01 e5 43 2b 21 1b 44
       195.15175 121.18892 458.0085 620.51825
000050 f0 15 b8 43 81 02 80 43 af 9f 25 44 42 29 7b 42
       368.1714 256.01956 662.49506 62.79029
000060 0b aa 84 44 6c a6 87 41 4c 21 42 42 f3 07 96 43
       1061.3138 16.95626 48.532516 300.0621
000070 49 7b b1 43 50 38 a5 43 e5 76 bc 43 ac 3e 77 43
       354.96317 330.43994 376.92886 247.24481

dsm_net.conv1.conv.3.weight f4 [32, 32, 3, 3]
000000 c5 ac 02 bf 93 13 f6 be c6 c9 02 bf 99 83 e5 be
       -0.51044875 -0.4806181 -0.5108913 -0.44826964
000010 74 fa f5 be a9 6b d4 be 23 39 b8 be 78 1e 86 be
       -0.48042643 -0.41488388 -0.35981092 -0.2619512
000020 cd 01 a6 be ed e6 e6 be 32 3a cb be de a6 c7 be
       -0.3242325 -0.45098057 -0.39692837 -0.38994497
000030 1f 0e e3 be 33 a5 a3 be 1b 19 8f be 4f 81 a8 be
       -0.4434671 -0.31961975 -0.2794884 -0.32911155
000040 f0 55 99 be df 04 ab be e1 74 0e bf 98 64 02 bf
       -0.29948378 -0.33402154 -0.55647093 -0.50934744
000050 e8 36 9e be 86 63 aa be 73 7b 9d be 04 6d 8f be
       -0.30901265 -0.33279055 -0.30758247 -0.2801286
000060 00 fb aa be b3 03 8b be be ee e3 be 04 5c bf be
       -0.33394623 -0.2715126 -0.44518083 -0.3737489
000070 f3 66 db be 63 06 ed be 7a b8 94 be 98 b2 d5 be
       -0.42851982 -0.46293935 -0.29046994 -0.4173782
000080 40 61 f1 be 36 c1 9d be 82 a4 c9 be 82 40 cb be
       -0.47144508 -0.3081147 -0.39383322 -0.39697653
000090 fc b7 ec bb b5 9a fb be 91 05 d5 be 4c f8 7a 3d
       -0.007224081 -0.4914147 -0.4160581 0.06127195
0000a0 aa ef cc be 4a 1b e5 be 00 f4 d4 3d 3f 1c 99 bd
       -0.400266 -0.44747382 0.10398102 -0.07476091
0000b0 7b fb d1 be 08 f2 bb be 09 b1 b5 be 61 f7 49 be
       -0.41012177 -0.36708093 -0.3548663 -0.19723274
0000c0 07 a9 9b be 33 38 bb be 88 84 6e be 60 a6 cd be
       -0.30402395 -0.36566314 -0.23292744 -0.40165997
0000d0 58 4f e1 be f8 41 ac be f2 66 0b 3e 0b 3d e1 be
       -0.44005847 -0.3364408 0.1361349 -0.43991885
0000e0 03 8c dd be 41 8b d1 3d c2 b0 26 be aa 65 e4 be
       -0.43270883 0.10231639 -0.16278365 -0.44608814
0000f0 cc 78 49 3e 5f 31 81 3c 9e f7 bf be 0a e6 03 bf
       0.19674987 0.015770612 -0.37493604 -0.51522887
000100 73 f4 ee be 0a 5d fe be 8c 8e e0 be 9e ad e8 be
       -0.46670875 -0.49680358 -0.43858755 -0.4544496
000110 98 65 a5 be 63 96 93 be d2 f1 9c be 7a 95 7b be
       -0.32304072 -0.28825673 -0.30653244 -0.2456874
000120 40 6b 69 3e d7 ee 43 3e 1b b0 2c 3d 3e 10 4a 3e
       0.22794819 0.19134079 0.042160135 0.19732758
000130 50 36 75 3e f8 41 52 3e 03 39 2b 3e 57 f8 37 3e
       0.239465 0.20532978 0.16720967 0.17965828
000140 3d 5e 70 3e 21 d4 3f be b3 03 b9 be 05 46 db be
       0.23473449 -0.18733265 -0.36135635 -0.42826858
000150 e8 79 d1 bd 07 f1 a5 be 04 d3 da be e8 9d f1 3d
       -0.1022833 -0.32410452 -0.42739117 0.11797696
000160 d8 5f cc be 2a 49 cb be 52 d6 fd be 2a 7e 08 bf
       -0.39916873 -0.39704257 -0.49577576 -0.5331751
000170 1f 14 df be e6 74 f6 be 24 74 e9 be 2f f2 ed be
       -0.4357004 -0.4813606 -0.4559642 -0.46473834
000180 6a b1 c6 be e2 71 a0 be a4 90 a1 be 78 4e c3 be
       -0.3880723 -0.31336886 -0.31555665 -0.38145804
000190 2b 99 9a be c4 a3 c9 be 91 08 df be 76 53 c8 be
       -0.30194983 -0.39382756 -0.43561223 -0.39126176
0001a0 11 fd bb be 32 ea da be ca f8 d8 be 4a 26 e6 be
       -0.36716512 -0.42756802 -0.4237731 -0.44951087
0001b0 b9 91 72 3e 68 d6 36 3e eb 47 8c bd 1c aa 68 3e
       0.23688401 0.17855227 -0.06849655 0.22721142
0001c0 94 04 4a 3e 98 4f 90 3d 44 98 2c 3e a4 c2 27 3e
       0.19728309 0.07046431 0.1685496 0.16382843
0001d0 c6 03 05 3e 1d 38 89 be ec e8 93 be 5b 72 87 be
       0.1298972 -0.26800624 -0.28888643 -0.26454434
0001e0 69 8b 5a be 59 75 97 be af 67 a0 be d4 09 c9 be
       -0.21342243 -0.29581717 -0.31329104 -0.3926531
0001f0 b0 48 d2 be 37 ed e0 be 75 87 e9 be 05 16 00 bf
       -0.4107108 -0.4393098 -0.45611158 -0.500336
000200 23 f5 ec be ab 96 fb be c4 5f da be 9c 3d 78 be
       -0.46280774 -0.49138388 -0.42651188 -0.24242252
000210 55 dc a2 be 39 3c 85 be e8 4a 98 be 3a 23 f0 be
       -0.31808725 -0.2602251 -0.2974465 -0.46901876
000220 55 c0 03 bf 1d b6 d0 be 9d 97 6b be 93 52 53 be
       -0.5146535 -0.4076394 -0.23007055 -0.20636968
000230 b5 8d 71 be cf 5e d7 be 78 87 2d be 60 df 63 be
       -0.23589213 -0.4206452 -0.16946208 -0.2225318
000240 d5 ee 80 3e db 72 33 3d 76 40 dc be d2 f1 39 3e
       0.25182214 0.043810707 -0.4301793 0.18158653
000250 9f 53 c5 3d b3 00 9d be 7e d8 3e 3e d2 23 12 3e
       0.0963509 -0.30664596 0.18637273 0.14271477
000260 91 35 00 be 3c 7c d8 3d cf 8d 03 bf 9e 3f de be
       -0.12520434 0.10570571 -0.5138826 -0.4340791
000270 8d 4d 4f 3e 2f 37 aa be ea 3e d0 be 26 85 15 3e
       0.20244427 -0.33245227 -0.40673 0.14601573
000280 15 a5 a6 bd 3d 22 f0 be 3e 6b 02 bf 7e 96 05 bf
       -0.08136956 -0.46901122 -0.5094489 -0.5218276
000290 9c bf e3 3d 09 08 8f be 5f a5 99 be 7b 2a 52 3e
       0.11120531 -0.27935818 -0.3000898 0.20524018
0002a0 4a e1 a4 be 2e d9 92 be 50 0a c8 3c a0 f1 fe 3c
       -0.32203132 -0.2868132 0.02441898 0.031121075
0002b0 2f d1 03 3e 0a c6 c3 3d a6 cb c8 3d 4d c2 fc 3d
       0.12872766 0.09559257 0.09804468 0.123417474
0002c0 ec 01 d2 3d 3f 68 03 3e db d6 f4 3d cc e5 33 3e
       0.10254273 0.12832735 0.11955043 0.1756813
0002d0 3f e9 e9 be f4 a2 fe be 8d 99 f7 be e5 36 e9 be
       -0.45685765 -0.49733698 -0.48359337 -0.45549694
0002e0 00 14 06 bf ff ba 0d bf 02 2e fa be 8f 30 f7 be
       -0.5237427 -0.5536346 -0.48863226 -0.48279235
0002f0 bb 28 b8 be 16 ca e7 be b4 a9 8e be 49 cc b4 be
       -0.35968575 -0.45271367 -0.27863848 -0.35312107
000300 c8 d1 10 bf 25 5f 85 be 51 3f a6 be 26 c3 41 bd
       -0.565701 -0.26049152 -0.32470182 -0.04730525
000310 60 5b e1 be ed ee 03 bf 46 f9 76 3e f4 b8 66 3e
       -0.44015026 -0.51536447 0.24118528 0.22531492
000320 6b f5 a0 3d 79 34 2d 3e 32 5c 36 3e 40 7b d5 3d
       0.0785931 0.16914548 0.17808607 0.10423899
000330 80 ec 75 3e ad 75 17 3e a2 0c 07 3e e9 49 dd 3d
       0.24015999 0.14790983 0.13188413 0.10805113
000340 46 f5 fe be 56 fd c5 be b8 94 d7 3d 7b 84 82 be
       -0.49796504 -0.38669842 0.10526413 -0.254917
000350 06 16 f6 be ce 0d 40 3e 19 84 56 3d f8 13 d5 be
       -0.48063678 0.18755266 0.052372072 -0.41616797
000360 32 64 d8 be 35 07 da be bf 47 fb be 4f 02 0f bf
       -0.42263943 -0.42583624 -0.49078175 -0.558629
000370 d1 df 04 bf 8b 43 d1 be 70 79 b1 be 53 f4 9b be
       -0.51904017 -0.40871844 -0.34662962 -0.30459842
000380 ff 47 79 be 3c 59 02 bf 81 10 0a bf 19 e8 c4 be
       -0.2434387 -0.5091741 -0.5393143 -0.38458326
000390 3f bd 4d be f9 a8 c2 be 77 0d bf be 4f ed 24 3e
       -0.20091723 -0.3801954 -0.3731496 0.16106151
0003a0 c7 57 9c bd 7e 7b 4d be a0 0c 68 3e 01 62 9a 3d
       -0.0763393 -0.2006664 0.22661066 0.07538224
0003b0 9a 5f cd be 08 18 81 3e 16 2c 26 3e 4b 4b ea be
       -0.40112 0.25213647 0.16227755 -0.4576057
0003c0 2e d5 24 3e 17 e9 4f 3e 71 72 4d be b0 14 d8 be
       0.16096947 0.2030376 -0.20063187 -0.42203283
0003d0 63 46 d9 be 96 ad dc be dd d5 c6 be 30 02 dd be
       -0.42436513 -0.43101186 -0.3883504 -0.4316573
0003e0 9b 1a df be 61 43 df be c5 8b e8 be b9 ac 06 bf
       -0.43574986 -0.43606094 -0.45419136 -0.52607304
0003f0 3a f3 e8 3d 41 ba 01 bf 54 ef e0 be fd ca bb 3d
       0.11374517 -0.50674826 -0.43932593 0.09169576

dsm_net.conv1.conv.4.weight f4 [32]
000000 7e 06 c9 3e b5 1d 84 3f 69 b1 c7 3f 03 8d af 3f
       0.39262766 1.0321566 1.5601016 1.3714908
000010 cc 1b 04 40 ae c3 d1 3f b3 cf ce 3e f5 57 de 3f
       2.0641966 1.6387842 0.40392837 1.7370592
000020 6a df b5 3f 40 8a 41 3f 79 28 93 bd 55 18 91 3d
       1.4208806 0.7560158 -0.07185454 0.07084719
000030 0e 12 1d 3f a7 be 88 3f 4d 25 c5 3f 3b e4 4d 3f
       0.61355674 1.0683182 1.5402008 0.8042638
000040 0d b9 9c 3f 33 72 a7 3f 23 c3 aa 3f ba 89 31 3f
       1.2243973 1.3081726 1.3340801 0.6935078
000050 64 95 8e 3f 74 e0 be 3f d7 e0 cd 3f d5 f6 62 3f
       1.113934 1.4912248 1.6084241 0.88657886
000060 e6 36 95 3f 10 f9 80 3f ae 9d 75 3f c7 cd a9 3f
       1.1657379 1.0076008 0.95943725 1.3265923
000070 e5 65 84 3f bf 35 7d 3f 21 73 ae 3f 56 10 69 3f
       1.0343596 0.98910135 1.3628885 0.9104055

dsm_net.conv1.conv.4.bias f4 [32]
000000 d6 bc 3f bf 4c c7 c3 bf 86 b7 f2 bf 1d 9a 2d bf
       -0.74897516 -1.5295196 -1.8962257 -0.67813283
000010 20 4e 0e c0 d7 03 88 c0 89 f1 e7 3f 8b 09 da bf
       -2.2235184 -4.2504687 1.8120586 -1.7034162
000020 ad 31 2e c0 32 43 fa 3e 93 d8 d1 be a5 b6 24 bf
       -2.721782 0.4887939 -0.40985546 -0.64341193
000030 14 7b 25 3f 44 09 00 3e f7 04 63 bf b7 15 d2 3f
       0.6464093 0.12503535 -0.8867945 1.6412877
000040 41 0a b1 bf d5 7c 6e bf d0 69 4e bf 79 8d 1a 3f
       -1.3831254 -0.9315923 -0.8063021 0.6037212
000050 43 30 81 be 11 40 4e bf 32 db 49 bf 6d f9 08 3e
       -0.25232133 -0.8056651 -0.7885009 0.13376398
000060 fd 35 bf be 6d a2 51 ba 30 b5 9b bd a8 50 f3 be
       -0.37345877 -0.00079969206 -0.07602918 -0.47522473
000070 ee 22 4c bc 71 00 7f 3e f1 74 1b bf 31 0e ef bd
       -0.0124595 0.24902512 -0.60725313 -0.11672629

dsm_net.conv1.conv.4.running_mean f4 [32]
000000 21 a1 6e c2 f8 15 1f 41 0e b2 4b c1 14 e9 3a c2
       -59.657352 9.942863 -12.73097 -46.727615
000010 94 37 ec c2 27 ab 96 c1 7c 82 52 c2 7e 14 88 c2
       -118.10855 -18.83357 -52.627426 -68.04002
000020 7e a7 96 40 c0 17 6a c2 c9 a1 2e 42 72 43 2f 42
       4.707946 -58.523193 43.657993 43.815865
000030 39 b3 8d c0 d2 1c 6a c2 05 04 d6 c1 a3 df c8 c1
       -4.428128 -58.528145 -26.751963 -25.109198
000040 17 e7 01 c2 d9 7b 51 41 06 aa 5a 41 0c 41 26 c2
       -32.475674 13.092736 13.66651 -41.563522
000050 88 e2 03 c2 5b c6 c5 bf a0 d8 32 c2 04 8f 93 41
       -32.971222 -1.5451158 -44.711548 18.444832
000060 6d a4 75 c2 16 bd 9b 42 48 16 7c c2 d0 a0 7c c2
       -61.410572 77.86931 -63.02176 -63.157043
000070 8a 70 a4 c1 4b 27 ab 41 cc 10 f4 c1 74 8d 16 c2
       -20.55495 21.394186 -30.508202 -37.638138

dsm_net.conv1.conv.4.running_var f4 [32]
000000 fd ce ef 43 c8 b1 21 44 8d 35 92 44 7f 52 03 45
       479.6171 646.77783 1169.6735 2101.156
000010 2f 64 e3 44 1f 79 87 44 aa a3 cf 44 55 a2 c7 44
       1819.1307 1083.785 1661.1145 1597.0729
000020 a1 e6 6b 44 9f 5b 08 45 dd 9a be 43 16 58 ea 43
       943.6036 2181.7263 381.20987 468.68817
000030 13 ff f1 44 21 b7 c9 44 01 0a 19 45 e2 1a aa 45
       1935.9711 1613.7228 2448.6252 5443.3604
000040 3f 91 35 44 ff cd 83 44 c5 22 94 44 72 d3 e8 44
       726.2695 1054.4374 1185.0865 1862.6077
000050 46 08 3c 45 c7 f4 6b 45 1c ee d8 44 89 fb a8 45
       3008.517 3775.2986 1735.4409 5407.442
000060 4e 12 fa 44 64 b8 2e 45 c7 a9 7e 45 6b 8e f4 44
       2000.572 2795.5244 4074.611 1956.4506
000070 42 99 31 45 ed 90 e9 44 85 b1 ba 44 1d 93 02 45
       2841.5786 1868.5289 1493.5475 2089.1946

dsm_net.conv2.conv.0.weight f4 [32, 33, 3, 3]
000000 5b 4c 98 be ef 5d af be 4f 45 11 bf e2 6c ee be
       -0.29745755 -0.34251353 -0.5674638 -0.46567446
000010 82 40 0d bf d7 10 27 bf e2 45 10 bf 8f ca 2b bf
       -0.55176556 -0.6526007 -0.5635663 -0.67105955
000020 fb ec 0d bf 79 a4 5b c0 d8 3b 0a bf 7d 41 82 c0
       -0.5543973 -3.4319136 -0.53997564 -4.070494
000030 18 a3 97 bf ee fe a8 3f f8 11 a8 bf ee c9 ff 3e
       -1.1846647 1.3202798 -1.3130484 0.49958748
000040 53 f7 3a 40 40 0b 49 40 5e 16 30 be 1b 3e d5 3e
       2.9213455 3.1413116 -0.17196032 0.41648945
000050 02 d6 6f 3e 4a da 8f be 68 68 e5 3e 38 8b 65 3e
       0.23421481 -0.2809623 0.44806218 0.22416389
000060 cc ad 62 bf 27 07 50 3f 33 33 8a 3f 5b 5b 0c 40
       -0.88546443 0.81260914 1.0796875 2.193076
000070 e2 eb 78 3f b2 e9 3f 40 d2 14 b6 bf 29 a9 0b bf
       0.9723493 2.9986386 -1.4225104 -0.5455499
000080 4b 02 5a 3f 9d 80 fa 3f ba b0 71 3f 8b 3c 9e 3f
       0.8515975 1.95705 0.9441029 1.2362226
000090 d6 e8 4b be d8 08 f4 3f e3 9c 4d be 64 75 90 bf
       -0.19913039 1.9065199 -0.20079379 -1.1285825
0000a0 5c ad 58 bf 7c 32 5b 3f 53 5d e7 3f 9d e5 83 bf
       -0.84639525 0.8562391 1.8075355 -1.0304447
0000b0 0b e7 ea 3e 81 5f 0c bf 2a d4 93 bf 3a 6a 16 c0
       0.45879397 -0.5483323 -1.1549122 -2.3502336
0000c0 87 97 16 3f de 93 ed 3e 19 2c e2 be ad 43 41 3f
       0.5882496 0.46401876 -0.4417427 0.7549389
0000d0 6e 7c 75 be da 96 ad bf 12 91 57 c0 6b ae e8 be
       -0.23973247 -1.3561661 -3.3682294 -0.4544557
0000e0 90 df 6d bf 25 a3 16 3e c7 db b7 3e bf 68 e8 3f
       -0.92919254 0.14710672 0.35909864 1.8156966
0000f0 2a 2a 81 40 79 72 8b bf 2c 8d 9e bf 5c 7d 00 40
       4.036397 -1.0894309 -1.2386832 2.0076513
000100 24 1d 32 3f 5f db aa bf c7 c3 d8 bd 4b 77 bb 3f
       0.69575715 -1.3348197 -0.105842166 1.464578
000110 da cd 8e 3f a3 dd 9d c0 7d 9f ed bf 09 25 db bf
       1.1156571 -4.9333053 -1.8564297 -1.7120677
000120 7b b0 2c 3f 46 5d ca 3e a6 20 7d c0 5b 3d 0c 3f
       0.6745679 0.39524287 -3.9551177 0.5478112
000130 a0 6f 9b bd 43 5b 39 c0 1b 42 2a 40 98 86 00 40
       -0.0758965 -2.8961952 2.6602848 2.008215
000140 95 01 e7 3f a8 9b 20 bf 25 b4 29 bf f0 e2 87 3f
       1.8047358 -0.6273751 -0.66290504 1.0616131
000150 5a 84 0c c0 a3 c9 9d bf ce 05 7f be 05 e9 89 3f
       -2.195578 -1.232716 -0.24904558 1.0774237
000160 86 75 4b bf d2 d5 f5 3e f6 21 13 3e 63 ed 74 3e
       -0.794762 0.48014694 0.14368424 0.23918681
000170 11 c7 78 3e cb 50 3e 3e 0f 3c 6c 3e cd f0 e7 3d
       0.24294688 0.18585508 0.23069786 0.11325226
000180 e1 73 5c bd 44 f5 86 3d c4 9d 8f 3c 45 fe 92 3e
       -0.05382145 0.065897495 0.017531283 0.28709617
000190 ff 8d 51 3e 57 0a 33 3e 93 12 28 3e e6 36 6d 3e
       0.20464323 0.17484413 0.16413336 0.23165473
0001a0 6c 8c 7a 3e 68 90 5c 3e 35 f8 2e 3e dd 06 1b 3e
       0.24467629 0.21539462 0.17086871 0.15139337
0001b0 18 53 07 40 cf 11 51 3f fe 1c a4 3f c2 2d 09 c0
       2.1144466 0.816678 1.2821348 -2.1434178
0001c0 e8 45 c0 bf 5b 1f 09 bf c8 f3 a0 be 38 77 68 3f
       -1.5021334 -0.5356347 -0.3143599 0.90806913
0001d0 40 12 6f 40 71 c0 c7 bd 5c e3 c9 be 6d fe 1d c0
       3.735489 -0.09753502 -0.39431274 -2.468654
0001e0 8a fd e2 be 69 5c bb 3e f5 b2 d7 be 22 88 1b c0
       -0.4433406 0.3659394 -0.4212872 -2.430184
0001f0 7b 09 84 3e a9 09 85 bf 4d 64 7e 3f bb 86 cf 3f
       0.25788483 -1.0393573 0.99371797 1.6212991
000200 ae 3c 84 bf 77 4c b8 bf cf af 4e 3f 45 ee f0 3e
       -1.0331018 -1.4398335 0.8073701 0.47056785
000210 a6 66 d5 bf 5e bc 4b bf 47 33 57 bf 27 d8 05 3e
       -1.6671951 -0.795843 -0.8406262 0.13070737
000220 dc 21 0b 40 f3 35 eb 3f 4f 6e 90 bf 38 4e 5d be
       2.1739416 1.8375839 -1.1283664 -0.2161187
000230 ba 83 19 bf 3f 1a 2f c0 c5 99 b4 bf 31 76 82 bf
       -0.59966624 -2.735977 -1.4109427 -1.0192319
000240 52 83 c9 3f 65 e4 c9 3e c9 98 cc bf a4 26 48 be
       1.5743201 0.39432064 -1.5984126 -0.1954599
000250 77 db 3d 3e 55 d6 9f bd 56 40 8c bf cf bb 71 3f
       0.1854075 -0.078045525 -1.0957134 0.944272
000260 cf cc 6c 3f aa d1 0c 3d 3a 2e 41 3f 5a a5 06 be
       0.92500013 0.03437964 0.7546116 -0.13149014
000270 f0 72 63 bf 06 5e a8 3e d2 76 69 bf 6c 17 a8 3f
       -0.88847256 0.32884234 -0.9119693 1.3132148
000280 f2 a6 d6 3f b3 eb c4 bf 0d 0a 38 40 4a fe e1 3f
       1.6769698 -1.538443 2.8756135 1.7655728
000290 4b 27 9a be 0c ab 98 bf e1 84 06 3f 7a 91 58 bf
       -0.30108103 -1.1927199 0.5254651 -0.8459698
0002a0 05 f8 9b bf bc aa 70 3f 16 e5 b2 be 6f af b7 bf
       -1.2185065 0.9401052 -0.34940404 -1.4350413
0002b0 8f 96 a7 3f 3f c3 49 3d 18 34 dc bf b5 25 da be
       1.3092822 0.049258467 -1.7203398 -0.42606893
0002c0 cc 73 2b bf 4f 66 87 3f 61 fb 85 3e c1 af f2 be
       -0.66973567 1.0578097 0.2616835 -0.47399715
0002d0 b4 e8 d3 3e bb ba 44 3f 8f e3 86 3f 37 f5 14 3f
       0.41388476 0.7684743 1.0538195 0.5818667
0002e0 f6 ad a6 bf 8e 1e 43 bf 65 c0 78 3f 50 91 bc bf
       -1.3021839 -0.762185 0.9716857 -1.4731846
0002f0 84 3b 26 3e 53 3f 02 40 e2 7c b3 3e 98 63 42 bf
       0.16233641 2.035115 0.35056216 -0.7593322
000300 ad f8 39 bf 2d 9d bd bf 6a 3c 9d be 2c 34 39 40
       -0.72645074 -1.4813591 -0.30710155 2.8938093
000310 01 f3 b3 be 04 88 08 3f 64 1e 83 c0 4e a4 19 bf
       -0.35146335 0.53332543 -4.09746 -0.60016334
000320 98 d9 58 c0 ad 13 aa 3f 6a 4a 8c 40 fc f4 16 40
       -3.3882809 1.3287255 4.3840837 2.3587027
000330 fe 11 86 c0 29 ee 13 c0 f7 ee be 3f 0c f3 4d c0
       -4.1896963 -2.3114111 1.4916676 -3.2179594
000340 1f 71 13 c0 e5 6a 9f c0 71 52 0b c0 78 e3 bd bf
       -2.3037794 -4.9817986 -2.1769068 -1.4835043
000350 34 3e 80 c0 8a df 8f bd d1 16 f9 3f e5 cf 02 3f
       -4.007593 -0.070250586 1.9460088 0.5109847
000360 e7 e9 e0 bf b8 6d 4c bf 0b 37 34 3f 1f 48 f6 bf
       -1.7571381 -0.7985492 0.7039649 -1.924076
000370 29 b2 12 bf 28 07 c1 3e 59 cd a0 3f d6 80 12 3f
       -0.573031 0.37700772 1.2562667 0.5722784
000380 de f2 bb bf b7 a5 7b 40 b5 46 8a 3e 6b 53 75 3f
       -1.4683492 3.9319894 0.2700707 0.9583041
000390 38 e4 04 bf 6c 89 db bf e4 97 00 3f 7e 17 db 3f
       -0.51910734 -1.7151313 0.50231767 1.7116544
0003a0 f6 91 24 bf 8d 61 23 bc 41 bf 2e 3f 84 93 26 bf
       -0.6428522 -0.009971988 0.6826058 -0.6506884
0003b0 56 e6 2d 40 d1 fd 15 c0 56 2c 4e c0 01 57 de bf
       2.7171836 -2.3436167 -3.221456 -1.7370301
0003c0 0a 65 aa 3f d2 8a 1a bd a9 46 05 3e cb 29 2b c0
       1.3312085 -0.037730046 0.13015236 -2.6744258
0003d0 fa d7 27 3f c3 6c 05 bf f0 ca b4 3e fa 18 7d 3f
       0.6556393 -0.5211908 0.3531108 0.98866236
0003e0 c4 17 d2 3f e9 72 5b bf 43 9c ac bf 53 fc 3c bf
       1.6413503 -0.85722214 -1.3485187 -0.73822516
0003f0 04 73 d2 3f 2b 21 23 3f 4d ac 3e bf 6e b0 7f bf
       1.644135 0.63722485 -0.7448166 -0.99878585

dsm_net.conv2.conv.1.weight f4 [32]
000000 9a e3 25 40 7b a0 c3 3f de f2 fb 3f 38 64 ec 3f
       2.5920167 1.528335 1.9683492 1.8468084
000010 e2 61 a2 3f 51 bf 3a 40 0a 84 1f 40 3c 73 c2 3f
       1.2686121 2.917927 2.492434 1.5191417
000020 ae b5 cf 3f 9e 55 47 3f 84 75 0c 40 53 a4 52 40
       1.6227319 0.77865016 2.1946726 3.2912796
000030 c3 ff 03 40 b5 4e 38 40 59 27 1c 40 bc 00 31 40
       2.0624855 2.879804 2.4399016 2.7656698
000040 cc 81 21 40 10 27 ca 3f 62 83 45 40 ff be 0b 40
       2.5235472 1.5793171 3.086144 2.1835325
000050 eb 1b f6 3f d7 a4 f0 3f 0a 39 23 40 6e 26 49 40
       1.922727 1.8800305 2.5503564 3.1429706
000060 a1 a5 03 40 27 3e 2d 40 d5 3a c8 3f c7 0f 1e 40
       2.0569842 2.7069185 1.5642954 2.469713
000070 c7 66 09 40 c2 43 d0 3f 97 c0 12 40 51 17 0c 40
       2.146898 1.6270678 2.2930048 2.1889231

dsm_net.conv2.conv.1.bias f4 [32]
000000 61 18 b5 bd 92 93 59 3e 5b 36 66 bf d1 34 50 bf
       -0.088425405 0.212477 -0.8992669 -0.8133059
000010 ff 7f bb bf 3b e7 05 c0 49 62 25 bf f2 a1 6a 3f
       -1.4648436 -2.0922382 -0.64603096 0.9165336
000020 90 d4 15 3f 34 e8 b3 3f b9 60 a3 bf 03 04 2d c0
       0.5852747 1.4055238 -1.2763892 -2.7033699
000030 e8 15 0c 3f a8 27 4b 3e f8 ed 14 bf 20 5e 51 bf
       0.54720926 0.19839346 -0.5817561 -0.8178425
000040 ae d5 9b 3d 59 aa 0f bf 51 37 b7 be 9d ec 0a bf
       0.076091155 -0.56119305 -0.3578439 -0.54267293
000050 26 54 33 bf 9e 2d 44 bf 7a 7f c8 bf 1e 68 ca be
       -0.70050275 -0.76632106 -1.5663903 -0.3953256
000060 fe 7c 47 bf 67 eb 67 bf 63 92 4f 3e d5 ff 85 bf
       -0.779251 -0.9059357 0.20270686 -1.0468699
000070 db 14 17 bf c8 7d ea 3e 84 b1 36 bf 9b a9 c4 be
       -0.590162 0.45799088 -0.7136462 -0.3841065

dsm_net.conv2.conv.1.running_mean f4 [32]
000000 b4 bd 97 c1 be 24 40 c1 b4 6f 22 c1 a8 1b ce 41
       -18.967628 -12.00897 -10.152271 25.763504
000010 46 ac ea 40 d3 a7 ba c0 0a 32 69 c1 88 28 fe 3f
       7.3335295 -5.8329864 -14.574717 1.9856119
000020 81 4b 19 c1 57 29 8a c2 5f 32 b3 c1 a5 aa c6 c1
       -9.580934 -69.08074 -22.399595 -24.833323
000030 6a 03 29 42 59 8b 88 40 94 ca 91 c1 85 56 11 3f
       42.253334 4.26701 -18.223915 0.56772643
000040 e2 18 1b c1 3c 55 91 c1 6f 44 52 41 a8 c2 2e 41
       -9.693575 -18.166618 13.141707 10.9225235
000050 f8 56 37 c1 f5 eb ff be 53 c1 32 c1 ea d8 ce 41
       -11.458733 -0.49984708 -11.172198 25.855915
000060 9a 99 f6 c1 af 32 34 40 6e c2 03 c1 63 3d e0 3f
       -30.825 2.8155935 -8.234968 1.7518734
000070 61 fd e0 c1 3c 3a 70 c2 ef 96 a6 c1 9f 69 c2 41
       -28.12372 -60.05687 -20.823698 24.301573

dsm_net.conv2.conv.1.running_var f4 [32]
000000 b8 2b de 43 80 16 97 43 d4 af c8 43 53 1e 90 43
       444.34155 302.17578 401.37366 288.2369
000010 5f 57 a7 42 28 a5 8d 43 21 a0 e7 43 f8 61 9b 44
       83.67065 283.29028 463.251 1243.0615
000020 84 17 c3 43 b6 80 a3 43 96 fa 25 44 2a c9 ef 43
       390.18372 327.00555 663.9154 479.5716
000030 dc 09 b9 43 83 94 1c 44 bb 1e 5e 44 d1 ce c2 43
       370.07703 626.3205 888.48016 389.61575
000040 26 2a 08 44 1e 52 39 43 41 86 02 44 3b e7 11 43
       544.65857 185.32077 522.0977 145.90324
000050 8d 4d 8d 43 6c b2 a9 43 7f 88 c8 43 f9 ee 21 44
       282.60587 339.39392 401.06638 647.73395
000060 5f 78 26 44 06 26 1a 44 1e 22 eb 43 89 8f e5 43
       665.8808 616.5941 470.26654 459.12137
000070 aa 51 91 43 10 2a 17 44 f7 94 03 44 14 8c 8b 43
       290.638 604.6572 526.3276 279.09436

dsm_net.conv2.conv.3.weight f4 [32, 32, 3, 3]
000000 c7 61 0b 3e b8 43 33 be 24 65 d0 3e c3 05 26 3f
       0.13611518 -0.17506301 0.40702164 0.6485254
000010 2e fc ca 3f 5e 10 67 3f d5 0c 12 3f ef e5 35 40
       1.5858209 0.9025935 0.5705083 2.842159
000020 fe 43 1c 3f 59 9d 77 3f 0c f7 0e 3f 80 7b 07 3f
       0.6104125 0.9672447 0.55845714 0.5292282
000030 e2 d4 b2 bd 5c 3a 01 bd 97 28 2e bf bd 19 48 3f
       -0.087320104 -0.031549796 -0.68030685 0.78164274
000040 b7 92 16 3f 96 3a 18 bf 05 58 0e bf df 5c 5d 3f
       0.5881762 -0.59464395 -0.5560306 0.86469835
000050 8b 1e b3 3f 64 83 b9 bd f6 02 9b 3d 95 f1 b8 be
       1.3993696 -0.09058264 0.07568924 -0.36121812
000060 d5 c5 c3 3f 8f 9d 75 3f 1d 68 61 3f cc 7a da be
       1.5294749 0.9594354 0.8804949 -0.42671812
000070 00 1c f3 bc 56 5b 6a 3f 88 03 98 be b2 3f a3 be
       -0.029676437 0.9154562 -0.29690194 -0.31884533
000080 b2 1b e6 3d a9 c8 bd bd c9 84 b0 be 68 6c c5 bf
       0.11235751 -0.092667885 -0.34476307 -1.5423708
000090 1b 79 24 bf 5f 2f 18 bf 20 ad 3c be 97 68 29 be
       -0.6424729 -0.5944728 -0.18425417 -0.16543804
0000a0 2c 7d eb 3a da e2 df 3e 16 75 74 3e 41 70 cc 3e
       0.0017966381 0.43727762 0.2387279 0.39929393
0000b0 d8 c8 dc 3e b4 71 f0 3c aa 6a 70 3f e6 ec 75 bf
       0.43121982 0.029351093 0.93912756 -0.96064603
0000c0 c6 60 4b be 8a 8d 2c 3f ff a6 b9 3f e3 26 d9 3f
       -0.19861135 0.6740347 1.4504088 1.6964992
0000d0 36 34 37 bf 12 bc 3a 3f 5b f1 cf bf 8e c5 78 be
       -0.7156404 0.7294322 -1.6245531 -0.24294111
0000e0 fa bc 08 40 82 75 60 3f e7 3d 75 3f b5 0f ae 3e
       2.1365342 0.876793 0.9579758 0.3399636
0000f0 cc 3b 18 40 cb 49 01 40 50 bc ae bf 97 76 31 bf
       2.3786497 2.020129 -1.3651218 -0.6932158
000100 25 b1 b7 bf 03 3e 4b c0 9d a4 33 bf 07 91 b5 bf
       -1.4350935 -3.17566 -0.70173055 -1.4184884
000110 ca ce 02 c0 01 76 c6 be e0 40 8c bf 7f ae fe bf
       -2.0438714 -0.38761905 -1.0957298 -1.9897002
000120 cc 74 36 3e fa 73 af 3e 0e 65 4d 3e 03 2c 31 3f
       0.17817992 0.3426817 0.2005808 0.6920778
000130 6d c2 0f 3f df e5 7c 3f 0e f0 e2 3e 20 67 bd be
       0.56156045 0.98788255 0.44323772 -0.3699274
000140 76 3b 3b bf 7e 30 ca 3e 77 b5 1a be 6b d9 ec bf
       -0.73137605 0.39490122 -0.15108286 -1.8503851
000150 f5 f5 32 bf f9 ba 4c 3c a1 d6 d6 bf 76 92 d3 bf
       -0.6990655 0.01249575 -1.678425 -1.6529071
000160 f6 fd 47 bf b4 af f0 bf 60 03 88 40 44 88 5f 3f
       -0.7812189 -1.880362 4.250412 0.873173
000170 8c 8f f9 3c f3 7c 3c bf 72 29 15 c0 fc 45 0e 40
       0.030463956 -0.7362816 -2.3306546 2.2230215
000180 2b 3d 74 40 e3 79 bc 3e 9e 2d 99 3f 7b 89 87 3e
       3.8162334 0.36811742 1.1967046 0.26472077
000190 32 3f 18 3f 95 b8 0e 40 98 46 21 c0 65 c0 4c c0
       0.5947143 2.230016 -2.5199337 -3.1992428
0001a0 39 a5 f2 bd 98 50 88 3f a8 01 74 3e 7d a5 45 40
       -0.1184792 1.0649595 0.23828757 3.0882256
0001b0 78 ea f8 bb 93 d9 bd bc 28 ff a0 bf e9 5b 35 3f
       -0.00759631 -0.023175037 -1.2577868 0.7084337
0001c0 58 c1 b5 3d 4b eb b5 bd 70 6c 6c 3f fe 41 38 3f
       0.08874768 -0.08882769 0.9235296 0.71975696
0001d0 48 de eb 3e 3e 0a 19 bf bf 32 76 bf 3b 58 0e 40
       0.46068025 -0.59781253 -0.9617118 2.2241352
0001e0 04 a9 7c 3e 3c be e1 3f d7 c3 e4 3f aa 80 a7 3f
       0.2467385 1.763618 1.7872266 1.308614
0001f0 2b 1f 26 3f 83 6e 6a be 4a 06 0f 3f c0 f7 0b 40
       0.6489131 -0.2289372 0.5586897 2.1869965
000200 91 c2 24 40 a4 f9 6a be 3c 63 28 3f 11 de 99 3f
       2.5743754 -0.22946793 0.6577642 1.2020894
000210 57 5c 3d 3f e7 84 04 40 19 bf 9c 3f 59 1a 2b 3e
       0.73969024 2.0706117 1.2245818 0.1670927
000220 ed 25 22 bf fe ed 48 c0 d3 ee 28 bf 39 0d 29 3d
       -0.6333912 -3.139526 -0.65989417 0.041272376
000230 c2 1f 9d bd 54 63 13 c0 36 0e 30 40 60 15 6d 3f
       -0.07672073 -2.3029375 2.7508674 0.9261074
000240 6e 99 32 3e ec 68 3a 3f ee 8c b7 3f ef 2f b2 3f
       0.17441341 0.7281635 1.4339883 1.3920878
000250 82 68 18 3e c6 8a 09 3f ff 4d de be 53 49 e5 3f
       0.14883617 0.53727376 -0.4341888 1.7913002
000260 3c ac 96 be eb 86 2f bf eb 05 72 3d 90 7f 49 40
       -0.2942828 -0.68565243 0.059087675 3.1484108
000270 e2 48 ff be ae 76 85 be b3 09 9b be 16 cf 13 be
       -0.49860293 -0.26067108 -0.30280837 -0.14434466
000280 2e 4a a2 3e 58 86 d8 3f 38 46 63 3f bf 10 30 40
       0.3169722 1.6915998 0.8877902 2.751022
000290 f6 c7 0e 40 ab 7d c1 bf 9d 22 99 3f bc 40 72 3f
       2.2309546 -1.5116476 1.1963688 0.94630027
0002a0 c7 92 41 bf d8 c2 25 bf 95 b8 32 bd 82 86 ca be
       -0.7561459 -0.6475043 -0.043633062 -0.39555746
0002b0 7c a8 7b be 06 1c d1 bf 31 00 fb 3e 42 4d 03 40
       -0.2457599 -1.6336677 0.49023584 2.0515904
0002c0 e6 56 15 3d d3 6b 98 bf 5e 3a 4e 3f 17 d7 7f bf
       0.036459826 -1.1907905 0.8055781 -0.99937576
0002d0 9f ea 03 c0 97 69 23 c0 92 5d 2b bf ed 86 c6 bf
       -2.0611951 -2.5533197 -0.6693965 -1.5509926
0002e0 9c d6 87 bf 51 69 0b 3f be 74 8c bf 7c f6 bd 3f
       -1.0612369 0.54457575 -1.0973127 1.4840846
0002f0 00 f2 d1 bf 3a 38 73 3f ca 88 cc 3f 79 14 83 bf
       -1.6401978 0.9500767 1.5979245 -1.0240623
000300 da 38 5c 3e e0 36 1f 3f 43 70 33 3f e7 3d 31 3f
       0.21506062 0.6219311 0.7009317 0.6923508
000310 7c 74 c6 3e d5 4d 57 3f 80 df ee 3f d2 fc b1 3f
       0.38760746 0.8410314 1.8661957 1.390528
000320 7b 79 05 40 6b 81 8b 3f fa c2 b7 bd 8f a3 ff 3f
       2.0855396 1.089887 -0.08972736 1.9971789
000330 45 51 1e 40 38 7f 22 40 d9 45 34 40 21 f9 be bd
       2.4737103 2.5390148 2.8167632 -0.09324861
000340 ed 09 f7 3e 80 db 17 be 9f 9a 00 3f 33 bc 1c 3f
       0.4824976 -0.14829826 0.50235933 0.6122467
000350 65 c2 c5 be be 08 15 3f f0 1a 06 be cc 9d 9e bf
       -0.38624874 0.58216465 -0.13096213 -1.2391906
000360 66 a6 34 bf 72 08 a9 3f 4d 07 15 40 00 04 8c bf
       -0.70566404 1.3205702 2.3285706 -1.0938721
000370 64 1d f2 3e 77 f2 20 40 24 dd 01 c0 5d d8 24 bf
       0.47288048 2.5147989 -2.0291224 -0.64392644
000380 bd ce a5 3f 7a 29 0b c0 40 12 3d bf 03 cf 86 3e
       1.2953717 -2.1744065 -0.7385597 0.26329812
000390 33 e7 a7 3e 08 00 7a bf e8 9a 70 bf f2 07 eb 3e
       0.32793579 -0.976563 -0.9398637 0.459045
0003a0 08 66 85 3f 09 30 d8 3f bc 14 06 bf 3c 4f 9d be
       1.0421762 1.6889659 -0.5237539 -0.30724514
0003b0 c9 f8 f7 bf e8 d0 9a be a3 1d 8c be a6 dc a4 bf
       -1.9372798 -0.30237508 -0.2736636 -1.2879837
0003c0 b6 4e 30 bf 5e 41 31 bf b3 ef dd bf 4f 5c 23 bf
       -0.68870103 -0.6924037 -1.7338775 -0.63812727
0003d0 07 7a cf 3d ae e4 3d c0 88 fb 17 3f 64 39 bf 3f
       0.10130697 -2.9670825 0.5936818 1.4939389
0003e0 8b b3 95 3d 68 22 72 be 23 fd e9 3e 0d 5d b5 bf
       0.07309636 -0.23645937 0.4570094 -1.4169022
0003f0 a8 2e c0 bf 2f ee ab bf dc c9 12 c0 62 8f 5b be
       -1.5014238 -1.3432063 -2.2935705 -0.21441415

dsm_net.conv2.conv.4.weight f4 [32]
000000 2b e4 7a 3f 4f 61 c2 3f c2 80 a5 3f f6 13 01 40
       0.98004407 1.5185946 1.2929919 2.0168433
000010 e4 3c 21 3f 81 2b 16 3d b9 08 01 40 63 c0 3c 3f
       0.62983537 0.036662582 2.0161574 0.7373106
000020 4f 88 d5 3f d8 15 9a 3f 84 a1 1d 40 64 f1 5a 3f
       1.6682223 1.2037916 2.4629831 0.8552458
000030 c7 36 e0 3f b0 ca d6 3f cf 07 33 3f a7 bf d6 3e
       1.7516717 1.6780605 0.6993379 0.41943094
000040 42 9a e2 3f 46 52 65 3f 4f 46 cf 3f 34 6d 9a 3f
       1.7703326 0.89578664 1.6193331 1.2064576
000050 78 36 2e 40 a1 4d 70 3f 7d 8f 09 40 92 7d 9e 3f
       2.7220745 0.9386845 2.1493828 1.2382071
000060 f2 37 f0 3f 1f be d7 3f 2b 1c 6d 3f 2b 63 bc 3f
       1.8767073 1.6854895 0.92621106 1.4717764
000070 22 e2 cb 3f 0c 67 0c 3d 17 47 1c 3f 83 b9 33 3f
       1.5928385 0.03427796 0.61045974 0.70204943

dsm_net.conv2.conv.4.bias f4 [32]
000000 92 ff 3c 40 49 cc 4c bf c8 7a 2c 3e 59 a9 d7 bf
       2.9530988 -0.79999214 0.16843712 -1.6848556
000010 01 54 05 40 76 ff db be cf d0 ad bf 33 f9 1a 3f
       2.0832522 -0.4296834 -1.3579348 0.605365
000020 44 d8 da be 68 c7 c3 bd 17 16 80 bf ac 44 d8 3d
       -0.42743123 -0.09559518 -1.0006741 0.10559973
000030 4b a7 54 bf 87 59 00 c0 a4 0b f1 3f f8 b4 c7 40
       -0.8306777 -2.0054643 1.8831677 6.240841
000040 bd f8 e3 be c9 0d 95 3e b0 d4 05 c0 a1 c0 0d bf
       -0.4452571 0.2911208 -2.0911064 -0.55372053
000050 4d bf 37 c0 36 05 07 3f 8b 3e b6 bf 39 e2 28 3d
       -2.871051 0.52742326 -1.4237837 0.041231368
000060 ea 67 94 bf 4a d6 4b c0 d4 56 71 bf 7d 64 4d bf
       -1.1594212 -3.1849542 -0.94273114 -0.8023146
000070 51 b4 5f bf 23 d3 b7 be a3 26 f8 3f 62 4b 01 40
       -0.87384516 -0.35903272 1.9386791 2.020226

dsm_net.conv2.conv.4.running_mean f4 [32]
000000 76 c3 dd 40 c8 ee d6 c0 5b 36 16 3e 47 5c 88 c0
       6.93011 -6.716648 0.14669172 -4.2612643
000010 45 44 90 41 e6 d3 d6 41 c5 a1 00 c2 c0 6d 80 c0
       18.033335 26.853466 -32.157978 -4.013397
000020 2b 5e 62 c1 e2 13 2d c0 3f 72 bb c1 dc e5 1e c0
       -14.14799 -2.7043386 -23.430784 -2.4827795
000030 4e be 75 c1 35 21 b1 c1 f0 27 d5 c0 8e 89 9b c1
       -15.358961 -22.141214 -6.661125 -19.442165
000040 2c 71 8d c1 3f 27 a0 41 3e 8a a6 c1 37 0b 9b 40
       -17.68026 20.019163 -20.817501 4.845119
000050 fd 6d 29 c2 b2 d7 e3 40 b4 e7 c0 c1 d5 c8 85 c1
       -42.35741 7.12008 -24.113136 -16.723063
000060 44 2a 95 c1 92 0b 1d 3f 3a d8 9c 40 c6 ad 18 c1
       -18.645638 0.6134578 4.901395 -9.542425
000070 db a1 70 c1 54 42 a0 41 06 10 db 40 36 93 37 3f
       -15.0395155 20.032387 6.845706 0.71709

dsm_net.conv2.conv.4.running_var f4 [32]
000000 78 3e 03 45 b6 41 92 44 f8 9a b9 44 18 06 51 44
       2099.9043 1170.0535 1484.8428 836.0952
000010 8b 72 6c 44 77 23 a9 43 1e 73 a3 44 49 72 cb 44
       945.78973 338.27707 1307.5974 1627.5714
000020 1c 80 7f 44 12 cf 51 44 02 a3 b7 44 74 8f 30 44
       1022.0017 839.2355 1469.094 706.24146
000030 59 a8 2b 44 0d e6 34 44 60 b4 90 44 3b 1a 31 44
       686.63043 723.59454 1157.6367 708.40985
000040 40 19 a7 44 6b 26 c0 44 d2 cb 1f 44 35 22 72 44
       1336.7891 1537.2006 639.1847 968.5345
000050 e7 6c bb 44 32 a8 86 44 35 ad dc 44 e7 bd ea 44
       1499.4032 1077.2561 1765.4127 1877.9344
000060 7a e7 a9 44 b0 46 19 44 20 97 d7 43 c9 1b d1 44
       1359.2336 613.1045 431.18066 1672.8683
000070 60 78 6e 44 b6 5e c2 43 ee 5a 5a 44 62 af 9d 44
       953.88086 388.73993 873.4208 1261.4807

dsm_net.conv3.conv.0.weight f4 [32, 33, 3, 3]
000000 25 d8 e4 3e ba 9e b0 3e 98 ba 43 3f 7f 77 2b c0
       0.44696155 0.344961 0.76456594 -2.6791685
000010 07 63 b2 bf 9a eb bf be da a1 8e bf de fb a3 3f
       -1.3936471 -0.37484437 -1.1143143 1.2811239
000020 4c 77 fe 3f 7c 60 22 c0 29 32 89 bf 80 05 a7 3f
       1.9880157 -2.537139 -1.0718433 1.3048553
000030 ca 2a 0b 3f e9 2a 80 bf 2b 42 ce 3e 71 c5 37 40
       0.54362166 -1.0013095 0.40284857 2.8714259
000040 7d da 82 be 6c 8f 55 3f ba d9 15 c0 44 82 f4 bf
       -0.25557318 0.8342197 -2.341414 -1.9102254
000050 03 3d 43 c0 70 61 e8 3d e7 73 a3 3f 2a 80 a9 bf
       -3.0505989 0.1134671 1.2769746 -1.3242238
000060 5a 79 c9 bf 4f 50 fd 3e b6 2a ca bf b3 72 29 40
       -1.5740159 0.49475333 -1.5794284 2.6476257
000070 b5 53 84 3f fb 5e 57 3f 52 b2 4d 3d 73 c5 a1 3f
       1.0338045 0.84129304 0.050218888 1.2638382
000080 5c 51 28 be 10 44 99 c0 a7 b3 3b bf 05 67 a6 c0
       -0.16437286 -4.7895584 -0.73321 -5.2000756
000090 51 7c 2b 40 35 10 19 40 be 75 c5 3f 8d 1d 6f be
       2.6794627 2.3916142 1.5426557 -0.23351116
0000a0 c8 9b 90 3e 93 e5 81 3f df c3 70 bf bb cb 04 be
       0.28243852 1.0148185 -0.94048876 -0.12968342
0000b0 c1 94 55 40 c5 38 40 be 1c 63 30 be 67 8a 80 be
       3.3372042 -0.18771656 -0.17225307 -0.25105593
0000c0 f0 79 53 be a0 76 1e be 1c d8 56 be b6 e6 5b be
       -0.20651984 -0.1547494 -0.20980877 -0.21474728
0000d0 eb 40 68 be 46 02 5d be f2 bf 14 3f ad fe b3 bf
       -0.22681014 -0.21582898 0.58105385 -1.4062096
0000e0 f3 4d 67 bf d2 86 46 3f dc 4e ab bd 27 51 eb 3f
       -0.90353316 0.7754947 -0.083646506 1.8384141
0000f0 02 a8 76 bf ac 13 d4 bf 3e 1c 15 3f 63 02 ca be
       -0.9635011 -1.6568503 0.5824622 -0.39454946
000100 2d ee a3 bd b2 53 9f 3e c8 df 85 bf 55 e8 0b bf
       -0.08004413 0.31118542 -1.0458918 -0.54651386
000110 3e ff 27 be 8b 13 cc bf 24 23 01 bf 3d b0 b0 bd
       -0.16405961 -1.5943464 -0.50444245 -0.08627365
000120 48 be 6b 40 1b a8 27 3f 2e 94 11 be 86 0a 8f bf
       3.6834888 0.65490884 -0.14216682 -1.1175086
000130 c9 57 9d 3e 82 01 bb bc 69 a0 b5 c0 20 2a 6a 3f
       0.30731037 -0.022827867 -5.6758313 0.9147053
000140 08 86 10 40 fc e9 a6 be 71 e3 92 be a1 3a a8 bf
       2.2581806 -0.3260039 -0.2868915 -1.3142892
000150 ae 37 13 3f 09 fc e3 3e e2 27 d1 3e 0c 65 b5 bf
       0.57506835 0.44528225 0.4085074 -1.4171462
000160 ff 81 51 bf d8 51 82 3e a9 ac cc bf f0 9e 80 bf
       -0.81838983 0.25453067 -1.5990192 -1.0048504
000170 42 e8 37 bd d1 68 cf be 4a 02 6a bf 78 39 73 3e
       -0.044899233 -0.40509656 -0.9140974 0.23752391
000180 46 0c 08 3f b4 94 c1 3d 57 88 16 40 59 91 3a 3f
       0.5314373 0.09452191 2.3520715 0.7287803
000190 38 4f 87 3e 1f b6 13 bf 54 24 3e bf 5a 14 43 bf
       0.26427627 -0.5769977 -0.7427418 -0.7620293
0001a0 85 8c 4a bf b4 61 d5 bf e7 a3 dc bf f2 27 b9 bf
       -0.79120666 -1.6670442 -1.7237519 -1.4465315
0001b0 1d d6 1a 40 e6 fb 8a 3f 70 30 53 40 a6 5d 56 bf
       2.4193184 1.0858123 3.2998314 -0.83736646
0001c0 71 4a d7 bf 02 e9 51 bf c1 f6 02 bf fe c1 68 bf
       -1.6819593 -0.81996167 -0.51157767 -0.9092101
0001d0 34 b8 8c bf da 34 26 40 11 fd 9b bf 70 3e 52 40
       -1.0993714 2.5969758 -1.2186605 3.285061
0001e0 ca b6 dc 3c 14 d2 09 c0 ba 3d ac 3f 60 73 f8 bf
       0.02694263 -2.1534472 1.3456337 -1.941021
0001f0 be c3 f6 bf a7 9e ab bf 8f 5a 25 c0 32 95 0e bf
       -1.9278486 -1.3407792 -2.5836523 -0.55696404
000200 df 76 12 bd a1 8a 55 c0 92 d6 1d bf 3f 0b 4f 3f
       -0.035757896 -3.3365862 -0.61655533 0.80876535
000210 10 bf d4 bf 20 50 50 3e ff db fd 3f 40 df 46 40
       -1.6620808 0.20343065 1.9832762 3.107376
000220 8a 75 a1 3f 39 17 a9 3f 56 73 57 be 65 30 af bf
       1.2613995 1.3210212 -0.21040091 -1.3686644
000230 11 1a ff bf 0e ce c0 3f 0f a5 d4 bd 87 e7 4d bf
       -1.992983 1.5062883 -0.10383045 -0.8043141
000240 d3 16 8a be 5a 27 b5 3e ea bd 55 bf dc e6 b8 bf
       -0.26970538 0.35381585 -0.8349291 -1.4445453
000250 65 5a a5 bf 84 32 ce bf 7d 89 1e 40 f4 27 f4 3f
       -1.2918211 -1.6109166 2.4771416 1.9074693
000260 4a 61 17 40 33 be f5 bf 4e 93 c5 be 85 f1 11 bf
       2.365313 -1.9198669 -0.38588947 -0.57009155
000270 27 94 ab 3f 66 a2 cd 3f 5c 1c 85 3f 2c 27 0b 3f
       1.3404588 1.6065185 1.039928 0.54356647
000280 14 fa 89 3f 8d ba ca 3f e0 df a5 3d fb a1 1e bf
       1.0779443 1.5838181 0.080993414 -0.6196591
000290 bc 1c 00 be 70 b4 99 3e f3 ed ef be e5 08 85 3d
       -0.12510961 0.30020475 -0.46861228 0.06495837
0002a0 ca 4c b9 3e 06 64 83 3d f1 c9 5a 3f fa 10 04 40
       0.36191398 0.06415562 0.8546439 2.0635362
0002b0 2c 4d 68 3f 81 01 25 3f be ad c7 3f e5 4b 98 3e
       0.90742755 0.6445542 1.5599897 0.29745403
0002c0 ac 0b 4e bd 3d 78 ca 3e 05 42 5f bf fe 49 d7 bf
       -0.0503041 0.3954486 -0.8721011 -1.6819456
0002d0 a6 6a 10 bf fe 7f aa bd 85 f0 6b bf 92 df 32 be
       -0.5641273 -0.08325194 -0.9216388 -0.17468098
0002e0 cf 14 c6 bf 72 4b 9c bc 5c 7c 80 3f e2 98 05 c0
       -1.54751 -0.019078944 1.0037951 -2.0874562
0002f0 c6 7a 43 40 f7 01 84 3f 2c 0c 04 bf 3d 6c f1 3f
       3.0543685 1.03131 -0.5158107 1.8861157
000300 20 32 b1 3f d0 06 d2 bf 04 a6 32 be 91 5e 41 40
       1.3843422 -1.6408329 -0.17446142 3.0213969
000310 19 33 36 bf 30 5e 8c 3f 92 ca ba bf fb 00 4f bd
       -0.7117172 1.0966244 -1.459307 -0.050538044
000320 c7 55 41 c0 b0 6d 5e bf 94 5f 67 3f 6a 3d d2 3e
       -3.0208604 -0.8688612 0.90380216 0.4106248
000330 36 d4 3a c0 c1 a3 10 bf fe c1 9e be 3c 41 9d bf
       -2.9192023 -0.5649987 -0.3100738 -1.2285533
000340 ee 80 2b 40 c7 86 52 c0 87 5b 16 c0 fb a9 2b 40
       2.6797442 -3.2894762 -2.3493364 2.6822498
000350 ac 09 c6 bf b7 11 e7 c0 59 b2 48 bf e9 2f ff bf
       -1.5471702 -7.2209125 -0.78397137 -1.9936496
000360 d4 45 b8 3c 3d 11 b6 bf f5 a3 3a be 9f 31 a1 be
       0.022494234 -1.4224011 -0.18226607 -0.3148317
000370 68 3b e9 3e b2 ad 82 3f ca 06 2d c0 0a c8 8b 3e
       0.45553136 1.0209258 -2.7035394 0.27301055
000380 8d 4d 03 bf 5d 74 0b c0 1d 9f 55 be d5 c4 02 bf
       -0.5129021 -2.1789773 -0.20861478 -0.5108159
000390 2d 0a ba bf 14 63 6b 3f 97 45 6e 3f 60 0f 6f 3b
       -1.4534355 0.91948056 0.93074936 0.003647767
0003a0 b4 10 8b 3f 86 20 13 3f fe bd 53 be 1e db 22 be
       1.0864472 0.574715 -0.20677945 -0.15903899
0003b0 c5 21 32 be 15 33 66 3e 0c aa 1b be a4 67 9f bd
       -0.17395695 0.22480424 -0.15201586 -0.0778344
0003c0 7f 67 c8 3e 28 84 69 be 8e 4d 6c 3d c3 93 af bf
       0.3914146 -0.2280432 0.05769115 -1.3716968
0003d0 67 ae 00 3f 04 25 c0 bf 3b 32 cc bd 4c 60 b1 3f
       0.50266117 -1.5011296 -0.09970518 1.3857512
0003e0 f3 ae c6 bf d7 13 75 3f 5f d4 b0 3f a4 e2 c3 bf
       -1.552214 0.957334 1.381481 -1.530354
0003f0 26 d2 5d bf 69 4b 90 bf 02 7a 52 bf c6 ad a1 3e
       -0.86648786 -1.1273013 -0.8221742 0.3157789

dsm_net.conv3.conv.1.weight f4 [32]
000000 4c 52 22 40 d7 94 58 40 d4 5e 3c 40 9c dc 4b 40
       2.536273 3.3840845 2.9432878 3.18534
000010 ea b2 e6 3f be 5c 96 3f 5e ce 8a 3f 9d 2b b4 3f
       1.802335 1.1747053 1.0844228 1.407581
000020 08 1f d2 3f f1 3f af 3f 61 0b b5 3f 3c 9d d5 3f
       1.641572 1.3691388 1.4144098 1.6688609
000030 9b cd a4 3f fa fd f3 3f aa b2 de 3f 5c 32 9a 3f
       1.2875246 1.9061882 1.7398274 1.2046618
000040 e4 6e 85 3f 6d 61 20 40 33 cd 8d 3f cd fa 19 40
       1.0424466 2.5059464 1.1078247 2.4059327
000050 28 2c a3 3f 35 00 ee 3f e9 ce a0 3f ec 7d 05 40
       1.274785 1.8593813 1.2563144 2.0858107
000060 b5 e8 c0 3e 1a 47 b6 3f e2 de fe 3f ea 3f 27 40
       0.3767754 1.4240448 1.9911768 2.613276
000070 93 9a 48 40 12 78 0c 40 0e eb aa 3f b2 d0 ce 3f
       3.1344345 2.1948285 1.3352983 1.6157439

dsm_net.conv3.conv.1.bias f4 [32]
000000 a8 80 82 bf b1 6f 2c c0 34 24 22 c0 a6 34 1a c0
       -1.0195513 -2.694317 -2.5334597 -2.4094634
000010 2d 0c 7e bf 4a 64 9b 3f 7a 4b 8e 3f 9a b2 13 40
       -0.9923733 1.2139981 1.1116784 2.307776
000020 52 69 b3 bf f0 22 45 be f2 21 94 bf e0 fa 62 bf
       -1.4016516 -0.19251609 -1.1572859 -0.88664055
000030 b1 c4 79 be e3 2d e1 bd 84 8f f7 be 09 35 c6 bf
       -0.24391438 -0.1099508 -0.4835168 -1.5484935
000040 c5 c1 97 be 34 6b 36 bf 56 5a a8 3d a2 a1 6a bf
       -0.29640022 -0.7125733 0.08220355 -0.9165288
000050 7b 9f c6 bf e7 9b bd be 1d 1c 46 bd c0 03 04 3e
       -1.551742 -0.37033007 -0.048366655 0.12892056
000060 43 4b a8 bf 69 c6 0f be a9 25 0a c0 43 f5 b9 bf
       -1.3147968 -0.14040531 -2.1585486 -1.4527973
000070 95 35 2a c0 a2 d9 13 c0 88 b5 bf 3f cf 47 0a c0
       -2.6595204 -2.3101583 1.4977274 -2.1606328

dsm_net.conv3.conv.1.running_mean f4 [32]
000000 28 6d c1 c0 e4 91 78 c2 e7 3c cb c0 1f c8 1b c1
       -6.0445747 -62.14247 -6.3511844 -9.736358
000010 7d a2 5d c2 39 6b 7e 41 f6 02 3f c3 a7 c0 db c2
       -55.40868 15.901177 -191.01157 -109.876274
000020 a8 ba 35 c2 20 8b d2 c1 8d 6c 90 c2 ec 81 3f c2
       -45.43228 -26.317932 -72.21201 -47.876877
000030 64 27 93 c1 73 54 1e 42 23 89 42 c1 b1 fa 84 41
       -18.394234 39.58247 -12.158481 16.622408
000040 41 e0 73 c2 5f bf c0 41 74 ef fa c0 aa 99 4b c2
       -60.968998 24.093443 -7.84173 -50.900063
000050 24 30 a8 41 eb 2b e5 c2 f4 4e 57 c2 d7 0f 04 42
       21.023506 -114.58578 -53.827103 33.01547
000060 8a 1f b8 41 09 8e e8 41 cb 21 13 c2 79 50 c1 40
       23.0154 29.069353 -36.783 6.0410733
000070 98 ae 70 c1 b3 28 98 c2 15 a6 bb c1 3d e9 91 c0
       -15.042625 -76.07949 -23.456095 -4.5597215
